…
Source: kaggle.com/code/zobayer0x01/steganography-detector GitHub Mirror: github.com/zobayersq/steganography-detector
Repository Contents:
File Size Purposesteganography-detector.ipynb13 KBTraining notebook — CNN architecture, data loading, training loopsteganalysis_cnn_model.h5~100 MBPre-trained model weights (trained on Zuppelli dataset)streamlit_webapp.py4 KBBasic Streamlit inference app (replaced by our React PWA)requirements.txt86 B Dependencies: TensorFlow, NumPy, Pillow, scikit-learn, Streamlit
CNN Architecture (from notebook):
Layer                          Output Shape         Parameters ────────────────────────────────────────────────────────────── Conv2D(32, 5×5, relu, same)    (128, 128, 32)       2,432 BatchNormalization             (128, 128, 32)       128 Conv2D(32, 5×5, relu, same)    (128, 128, 32)       25,632 BatchNormalization             (128, 128, 32)       128 MaxPooling2D(2×2)              (64, 64, 32)         0 Dropout(0.25)                  (64, 64, 32)         0 
Conv2D(64, 3×3, relu, same)    (64, 64, 64)         18,496 BatchNormalization             (64, 64, 64)         256 Conv2D(64, 3×3, relu, same)    (64, 64, 64)         36,928 BatchNormalization             (64, 64, 64)         256 MaxPooling2D(2×2)              (32, 32, 64)         0 Dropout(0.25)                  (32, 32, 64)         0 
Conv2D(128, 3×3, relu, same)   (32, 32, 128)        73,856 BatchNormalization             (32, 32, 128)        512 Conv2D(128, 3×3, relu, same)   (32, 32, 128)        147,584 BatchNormalization             (32, 32, 128)        512 MaxPooling2D(2×2)              (16, 16, 128)        0 Dropout(0.25)                  (16, 16, 128)        0 
Flatten                        (32768)              0 Dense(256, relu)               (256)                8,388,864 BatchNormalization             (256)                1,024 Dropout(0.5)                   (256)                0 Dense(1, sigmoid)              (1)                  257 ────────────────────────────────────────────────────────────── Total Parameters:              ~8.7 million Input:                         128 × 128 × 3 (RGB, normalized [0,1]) Output:                        Single float (0 = clean, 1 = stego) Optimizer:                     Adam (lr=0.001) Loss:                          Binary Crossentropy Training:                      100 epochs, batch size 32 
…
